…
"config.json:   0%|          | 0.00/697 [00:00<?, ?B/s]"],"application/vnd.jupyter.widget-view+json":{"version_major":2,"version_minor":0,"model_id":"bcb81fc9050c460da1fc898f9ab9fe2d"}},"metadata":{}},{"output_type":"display_data","data":{"text/plain":["model.safetensors:   0%|          | 0.00/1.44G [00:00<?, ?B/s]"],"application/vnd.jupyter.widget-view+json":{"version_major":2,"version_minor":0,"model_id":"beb06d0a4e5b4c08bb6b8c83834e45e1"}},"metadata":{}},{"output_type":"execute_result","data":{"text/plain":["XLMRobertaModel(\n","  (embeddings): XLMRobertaEmbeddings(\n","    (word_embeddings): Embedding(46166, 1024, padding_idx=1)\n","    (position_embeddings): Embedding(8194, 1024, padding_idx=1)\n","    (token_type_embeddings): Embedding(1, 1024)\n","    (LayerNorm): LayerNorm((1024,), eps=1e-05, elementwise_affine=True)\n","    (dropout): Dropout(p=0.1, inplace=False)\n","  )\n","  (encoder): XLMRobertaEncoder(\n","    (layer): ModuleList(\n","      (0-23): 24 x XLMRobertaLayer(\n","        (attention): XLMRobertaAttention(\n","          (self): XLMRobertaSelfAttention(\n","            (query): Linear(in_features=1024, out_features=1024, bias=True)\n","            (key): Linear(in_features=1024, out_features=1024, bias=True)\n","            (value): Linear(in_features=1024, out_features=1024, bias=True)\n","            (dropout): Dropout(p=0.1, inplace=False)\n","          )\n","          (output): XLMRobertaSelfOutput(\n","            (dense): Linear(in_features=1024, out_features=1024, bias=True)\n","            (LayerNorm): LayerNorm((1024,), eps=1e-05, elementwise_affine=True)\n","            (dropout): Dropout(p=0.1, inplace=False)\n","          )\n","        )\n","        (intermediate): XLMRobertaIntermediate(\n","          (dense): Linear(in_features=1024, out_features=4096, bias=True)\n","          (intermediate_act_fn): GELUActivation()\n","        )\n","        (output): XLMRobertaOutput(\n","          (dense): Linear(in_features=4096, out_features=1024, bias=True)\n","          (LayerNorm): LayerNorm((1024,), eps=1e-05, elementwise_affine=True)\n","          (dropout): Dropout(p=0.1, inplace=False)\n","        )\n","      )\n","    )\n","  )\n","  (pooler): XLMRobertaPooler(\n","    (dense): Linear(in_features=1024, out_features=1024, bias=True)\n","    (activation): Tanh()\n","  )\n",")"]},"metadata":{},"execution_count":37}],"source":["tokenizer = AutoTokenizer.from_pretrained(\"deepvk/USER-bge-m3\")\n","model = AutoModel.from_pretrained(\"deepvk/USER-bge-m3\")\n","model.to(device)\n"]},{"cell_type":"code","execution_count":null,"metadata":{"id":"uY6mqfqWgEBZ"},"outputs":[],"source":["#фун
…
